CHAPTER_5/DigitClassifier/app/src/main/assets/keras_model_cnn.tflite (tflite, 376496 bytes, 10 tensors)

sequential/conv2d/BiasAdd/ReadVariableOp f4 [32]
0	0xbd6da2bb	-0.05801652
1	0xbcc58a16	-0.024113696
2	0x3da1d76c	0.079024166
3	0xbcd17d23	-0.025572365
4	0xbc3d644c	-0.011559557
5	0xbc803750	-0.015651375
6	0xbda3d2d6	-0.07999198
7	0x3cebce84	0.028784998
8	0xbd230610	-0.039800704
9	0xbdbcfdd4	-0.092281014
10	0xbd3a4964	-0.045480147
11	0xbd81e3ba	-0.063422635
12	0xbdd01620	-0.1016047
13	0xbdc0220e	-0.093814954
14	0xbd24a781	-0.040198807
15	0xbc7042f2	-0.0146643985
16	0x39cdb10d	0.0003923256
17	0xbce82db9	-0.028342115
18	0x3cd9556b	0.026529988
19	0xbe01048d	-0.12599392
20	0xbc38e5ff	-0.011285304
21	0xbca91414	-0.020639457
22	0xbcb63271	-0.02224085
23	0xbc8e7f99	-0.017394828
24	0xbcc81158	-0.024422333
25	0xbce55098	-0.027992532
26	0xbdd1f715	-0.10252205
27	0xbc61e116	-0.013786575
28	0x3dabdb95	0.08391491
29	0xbc2b7935	-0.01046591
30	0xbcafd910	-0.021465808
31	0xbce55d24	-0.027998514

sequential/conv2d_1/BiasAdd/ReadVariableOp f4 [64]
0	0xbca5d873	-0.020244813
1	0xbcebc92c	-0.02878245
2	0xbd7a0715	-0.06104191
3	0xbd84a1eb	-0.06476196
4	0xbdcb1026	-0.099151894
5	0xbd3f9dc5	-0.04678132
6	0xbc016b28	-0.007899083
7	0xbc36a057	-0.011146626
8	0xbd1aa49e	-0.037754647
9	0xbcd7e568	-0.026354507
10	0xbe05af84	-0.13055235
11	0xbd8c1da5	-0.06841592
12	0x3d1ace75	0.03779455
13	0xbd3a1085	-0.04542591
14	0x3c54a890	0.012979642
15	0xbc8a1a15	-0.01685814
16	0xbcc25441	-0.023721816
17	0xbc8b494b	-0.017002722
18	0xbd72a547	-0.059239652
19	0xbd1bf8ec	-0.038079187
20	0xbd731cdc	-0.059353694
21	0xbda904ad	-0.08252845
22	0xbda57261	-0.08078457
23	0xbc9abdf9	-0.018889414
24	0xbc76f292	-0.015072482
25	0x3c9a70c6	0.018852603
26	0xbcfab9f1	-0.030606242
27	0xbdacc4a6	-0.08435945
28	0xbd40399c	-0.04692994
29	0x3cfb95fe	0.03071117
30	0xbc8b9118	-0.01703696
31	0xbd86e1a3	-0.065860055
32	0x3bbccebf	0.0057619507
33	0xbcf3c5c8	-0.029757395
34	0xbd56ada5	-0.052411694
35	0xbd1797b2	-0.037009902
36	0x3d694046	0.05694606
37	0x3ca0e923	0.019642418
38	0x3c96b8d1	0.018398674
39	0x3b2a6dc6	0.0026005371
40	0xbc274cba	-0.010211164
41	0xbcbc744c	-0.023004673
42	0xbd5e45b6	-0.0542657
43	0xbd835a2c	-0.06413683
44	0xbd5fcb2e	-0.054637127
45	0xbc28f809	-0.010313042
46	0x3c0b3567	0.008496619
47	0xbd88e3fe	-0.06684111
48	0xbd928517	-0.07154291
49	0xbceeec0f	-0.029165296
50	0xbd2166ad	-0.03940456
51	0xbd7bd8cb	-0.061486047
52	0xbd22adc6	-0.039716505
53	0xbd61275c	-0.054969177
54	0xbdece818	-0.11567706
55	0x3bb23187	0.005438033
56	0xbd2a61dd	-0.041597236
57	0xbd338bfd	-0.043834675
58	0x3ca0aae7	0.019612743
59	0x3b70cb74	0.0036742361
60	0xbc009e95	-0.007850309
61	0xbc0503aa	-0.008118549
62	0xbd94864a	-0.07252176
63	0xbcba9da2	-0.022780243

sequential/conv2d_2/BiasAdd/ReadVariableOp f4 [64]
0	0x3cb46af1	0.02202365
1	0xbd2aef14	-0.04173191
2	0xbd8d5fce	-0.06903039
3	0xbd06b0c9	-0.03288344
4	0xbbfabb5f	-0.007651731
5	0xbc4d3150	-0.012523964
6	0x3d204f06	0.039137863
7	0xbd3fe999	-0.046853635
8	0xbcf9a3c6	-0.030473601
9	0x3cbdbfb0	0.023162693
10	0x3d36626c	0.044527456
11	0x3bbd360b	0.0057742647
12	0xbbaaf27f	-0.005216896
13	0xbd23353e	-0.039845698
14	0x3cfd344a	0.030908722
15	0x3ca1807c	0.019714586
16	0x3d2771d4	0.04088004
17	0xbb8271b8	-0.0039808415
18	0xbd16efa4	-0.036849633
19	0xbbc1b702	-0.005911709
20	0x3d17826d	0.036989618
21	0xba4f0612	-0.0007897328
22	0xbb2a112c	-0.0025950177
23	0x3bc7b7b1	0.006094896
24	0xbc99668b	-0.018725654
25	0x3c8dacd3	0.017294323
26	0xbc0308a7	-0.007997668
27	0xbc94136e	-0.018075671
28	0x3bae0a0c	0.0053112563
29	0x3d482a52	0.048868485
30	0x3cb50a8f	0.022099761
31	0xbd16134f	-0.036639508
32	0x3b377c7d	0.0027997785
33	0x3c260723	0.010133537
34	0xbd4a0528	-0.049321324
35	0xbd117b2e	-0.035517864
36	0x3c99689e	0.018726643
37	0x3bd36aef	0.0064519565
38	0xbc1a8660	-0.009431452
39	0xbce00492	-0.02734593
40	0xbb18690a	-0.0023255968
41	0x3c503fb2	0.012710499
42	0xbc886c56	-0.016653221
43	0xbcc39550	-0.023874909
44	0xbd084fcc	-0.033279225
45	0x3d611046	0.05494716
46	0x3d8137f8	0.06309503
47	0xbc9f96df	-0.01948112
48	0xbc44f421	-0.0120210955
49	0xbcb77703	-0.022395616
50	0x3b205ca5	0.0024469283
51	0x3d0310ca	0.031998433
52	0xbcf30cb5	-0.029669145
53	0xbcbd31f1	-0.023095103
54	0xbd2f6fee	-0.042831354
55	0xbc9618c8	-0.018322363
56	0x3d409732	0.04701919
57	0x3cb21e82	0.021743063
58	0xbc8bcde7	-0.017065955
59	0xbcb6241a	-0.022234011
60	0x3cc93b74	0.024564482
61	0xbd31b62c	-0.043386623
62	0x3d3ff6a7	0.046866085
63	0xbd729097	-0.059219923

sequential/dense/BiasAdd/ReadVariableOp f4 [64]
0	0xbcbbaa54	-0.022908367
1	0x3d874ffb	0.06607052
2	0xbcaa47c3	-0.020786172
3	0xbbd96a25	-0.006634968
4	0x3c0d83d1	0.0086373845
5	0xbb277929	-0.0025554395
6	0xbd16dd7b	-0.036832314
7	0xbb38dd54	-0.0028208094
8	0xbda7617d	-0.08172891
9	0xbd256786	-0.04038193
10	0xbc10034a	-0.008789847
11	0x3d8ee836	0.069778845
12	0x3aaa291f	0.0012982226
13	0x3bf723ad	0.0075420947
14	0xbd805182	-0.062655464
15	0x3bff91ec	0.0077993777
16	0x3c9ef24f	0.019402651
17	0xbd1ae5fc	-0.037816986
18	0xbda3aefe	-0.079923615
19	0xbd9793e0	-0.07401252
20	0xbd3122d2	-0.043246098
21	0x3dbfa742	0.09358074
22	0x3c960d92	0.018317018
23	0x3d6f47c0	0.058418036
24	0x3c9fce5b	0.019507578
25	0x3ca3180a	0.019908924
26	0xbc06d2e7	-0.008228994
27	0x3d1ede1a	0.03878603
28	0x3a89a80b	0.0010502351
29	0x3d163a2c	0.03667657
30	0x3bb1c75a	0.005425376
31	0x3d18ae25	0.037275452
32	0x3d8edafc	0.06975362
33	0x3d9da882	0.07698156
34	0xbd22e9fe	-0.039773934
35	0xbd7c25f6	-0.06155964
36	0xbce97237	-0.028496845
37	0xbd533ea2	-0.051573403
38	0x3ba5ff11	0.0050658067
39	0xbc31d40c	-0.010853779
40	0xbcdc1c2d	-0.026868904
41	0x3d3603f4	0.044437364
42	0x3cfb81cd	0.030701542
43	0xbca72a7f	-0.020406006
44	0xbcfa89a0	-0.030583203
45	0xbd1cb204	-0.038255706
46	0xbca29992	-0.019848619
47	0x3c934c9e	0.01798087
48	0xbb17b286	-0.002314718
49	0xbd3445b0	-0.04401177
50	0xbc895af0	-0.016766995
51	0xbd66e678	-0.056372136
52	0x3d8daca4	0.06917694
53	0xbd01e50f	-0.031712588
54	0xbd513664	-0.05107726
55	0x3cac33ce	0.021020796
56	0xbcac7671	-0.021052571
57	0x3b96fea0	0.0046079904
58	0xbd602175	-0.054719407
59	0xbda78228	-0.08179122
60	0x3c8b4ed0	0.017005354
61	0x3d6f5b02	0.0584364
62	0x3be0e171	0.006862812
63	0xbd8a212a	-0.06744607

sequential/dense_1/BiasAdd/ReadVariableOp f4 [10]
0	0xbd437071	-0.047714654
1	0x3c6827ea	0.0141696725
2	0xbd4419d4	-0.047876194
3	0x3c94db7a	0.01817106
4	0x3cc94c35	0.024572471
5	0xbcc14341	-0.02359164
6	0xbd917904	-0.0710316
7	0x3d381537	0.044942107
8	0x3da57671	0.080792315
9	0xbcc2d274	-0.023781992

sequential/dense/MatMul f4 [64, 576]
0	0xbc9fdbbc	-0.019513957
1	0xbdb5e03a	-0.088806584
2	0x3bf0a030	0.0073433146
3	0xbdbdc586	-0.0926619
4	0xbde8d07c	-0.1136789
5	0xbd7f46f3	-0.06232352
6	0xbc02fbe8	-0.007994629
7	0xbda4cdbd	-0.08047054
8	0x3aae9f3d	0.0013322603
9	0x3d9b0466	0.07569198
10	0xbdf106c9	-0.11768872
11	0xbca3bd04	-0.01998759
12	0xbc97cfb5	-0.01853166
13	0x3cc55d09	0.024092214
14	0xbca1b950	-0.019741684
15	0xbd071a72	-0.032984205
16	0xbd02c166	-0.03192272
17	0xbccbe7b0	-0.02489075
18	0xbbf887a0	-0.007584527
19	0x3d84587d	0.0646219
20	0x3bde1088	0.006776873
21	0xbdd67c98	-0.10472983
22	0x3bf12fdb	0.007360441
23	0x3d13803d	0.03601097
24	0xbd6b51e5	-0.057451148
25	0x3d64c249	0.055849347
26	0xbdbcaff7	-0.0921325
27	0xbdd49f89	-0.103819914
28	0xbda68f11	-0.081327565
29	0xbd8ed171	-0.069735415
30	0x3d19e88f	0.0375753
31	0xbbf76184	-0.0075494666
32	0xbcf0798d	-0.029354835
33	0xbdc42b2f	-0.09578549
34	0xbdcf6aa9	-0.10127766
35	0xbd29a67b	-0.041418534
36	0x3da32b16	0.07967202
37	0x3ca9da1b	0.020733884
38	0xbd851b5b	-0.06499358
39	0x3d02ea66	0.03196182
40	0x3d1ba129	0.03799549
41	0xbba37aed	-0.004989019
42	0xbd0004b0	-0.03125447
43	0x3abeb240	0.0014548972
44	0xbb64f940	-0.0034938604
45	0xbdc7dd31	-0.09758986
46	0xbca3e7c0	-0.020007968
47	0x3dc45ae0	0.095876455
48	0xbcd12eb3	-0.025534963
49	0xbd4de68d	-0.0502687
50	0xbdec183e	-0.11528061
51	0xbdadfc4f	-0.0849539
52	0xbdff88e7	-0.12477284
53	0x3dad4d75	0.084620394
54	0xbba186e0	-0.0049294084
55	0x3d499336	0.049212657
56	0xbd724ed7	-0.05915722
57	0x3d28c564	0.04120387
58	0x3d407a5e	0.0469917
59	0xbd8c8374	-0.0686101
60	0xbd8d5a00	-0.06901932
61	0x3d27415e	0.040833823
62	0xbc238778	-0.009981029
63	0xbdc4597e	-0.09587382
64	0x3d499fd6	0.049224697
65	0x3d93c838	0.07215923
66	0xbd4bcb48	-0.04975441
67	0x3bd9b6be	0.006644099
68	0xbd395a25	-0.045251984
69	0x3d96163f	0.07328462
70	0x3cad8aa4	0.021184273
71	0x3cf0ba57	0.029385729
72	0x3d3a3d07	0.045468356
73	0xbc3a9e76	-0.011390319
74	0xbdcc430b	-0.09973725
75	0x3da89bdc	0.08232853
76	0xbdc0c046	-0.09411673
77	0xbd612926	-0.054970883
78	0xbd14a5a5	-0.036290783
79	0xbc2da844	-0.0105992
80	0xbdad44ef	-0.08460414
81	0xbdb36d96	-0.08761136
82	0xbc6934b0	-0.014233753
83	0x3d14fdcc	0.036374852
84	0xbe082596	-0.13295588
85	0xbe06b39b	-0.13154452
86	0x3cb84477	0.022493584
87	0xbdd936c4	-0.10606149
88	0x3da2e2c5	0.07953409
89	0xbdc84e3b	-0.09780546
90	0x3d8d67d4	0.06904569
91	0xbdecbebf	-0.115598194
92	0xbda001d5	-0.078128494
93	0x3bb8d1cc	0.005640244
94	0xbc030d2c	-0.007998746
95	0xbe05adc7	-0.13054572
96	0xbd452c19	-0.048137758
97	0x3c4af2d9	0.012387001
98	0xbd052591	-0.03250653
99	0x3c81a5cc	0.015826128
100	0x3d0c2928	0.034218937
101	0xbc9941ef	-0.018708197
102	0x3d19152c	0.037373707
103	0x3d83c5aa	0.06434186
104	0x3d4f4cf4	0.050610498
105	0xbbc72aa6	-0.006078082
106	0xbdb4b176	-0.088229105
107	0x3c8ffb30	0.01757583
108	0x3dafe6ca	0.085889414
109	0xbcd2bc94	-0.025724687
110	0xbc58f420	-0.013241798
111	0xbd59a508	-0.0531359
112	0x3d933583	0.07187941
113	0x3d705077	0.058670487
114	0xbde29d23	-0.11065128
115	0x3d4b121f	0.04957783
116	0xbdcef4a3	-0.101052545
117	0xbd1599c7	-0.036523607
118	0xbd81b26c	-0.063328594
119	0x3dad84ba	0.08472581
120	0xbdcc14f6	-0.099649355
121	0xbb6f6c18	-0.0036532935
122	0x3ca16cbd	0.01970517
123	0xbbeed3f8	-0.0072884522
124	0xbc02d0f1	-0.007984386
125	0x3b97352d	0.0046144933
126	0x39a59500	0.00031582266
127	0x3dc1deac	0.094662994
128	0xbd6ef361	-0.058337573
129	0xbdbc5dc4	-0.09197572
130	0xbdb101c6	-0.086429164
131	0x3bb0bc56	0.005393545
132	0xbd7f7897	-0.062370863
133	0xbdfa820d	-0.122318365
134	0xbdd4c583	-0.10389235
135	0xbcccae39	-0.02498542
136	0xbde037f7	-0.109481744
137	0x3d8db598	0.06919402
138	0x3d7f82b7	0.06238052
139	0xbd3dfed7	-0.046385612
140	0xbda7d6cb	-0.081952654
141	0xbdc85abe	-0.09782933
142	0x3c157b36	0.009123614
143	0xbde49e9f	-0.11163067
144	0xbd3e907b	-0.046524506
145	0x3d50e88b	0.05100302
146	0x3c5a56d0	0.013326362
147	0xbdcaadd6	-0.09896438
148	0xbdaa37a3	-0.08311393
149	0xbbaf7330	-0.0053543076
150	0xbdab757f	-0.0837202
151	0x3acd9521	0.0015684703
152	0x3d293bd5	0.041316826
153	0x3da48650	0.080334306
154	0x3d200911	0.039071146
155	0x3d5fce0e	0.05463987
156	0x3c52eeb0	0.01287429
157	0xbd43cc0d	-0.04780202
158	0xbd9fb384	-0.07797912
159	0xbcf99f21	-0.030471386
160	0xbdb01a09	-0.08598716
161	0x3d0d9d69	0.034573946
162	0xbd6da875	-0.05802198
163	0x3d84b386	0.06479554
164	0x3d1f5ae8	0.038905054
165	0x3c326121	0.010887415
166	0xbcf2d6a8	-0.029643372
167	0xbd17208a	-0.036896266
168	0x3d7015e3	0.058614623
169	0x3d7aea8a	0.06125883
170	0x3bbaca81	0.00570041
171	0x3ae53180	0.0017486066
172	0xbdc4c3a3	-0.09607627
173	0xbd58190d	-0.052758265
174	0xbd9884af	-0.074471824
175	0xbdab6d9c	-0.08370516
176	0xbdcccbc6	-0.09999804
177	0x3c22e181	0.00994146
178	0xbdfd1b7d	-0.123587586
179	0xbd48d6df	-0.049033042
180	0xbdb13196	-0.08652036
181	0xbd22a090	-0.039703906
182	0x3c1a8b98	0.009432696
183	0xbce38b8a	-0.027776498
184	0x3d8de8f9	0.06929202
185	0xbd86828e	-0.0656787
186	0xbc7ac2fa	-0.015305275
187	0xbd80a091	-0.062806256
188	0xbe162c85	-0.1466542
189	0xbd1dce3e	-0.038526766
190	0xbd3256c7	-0.04353979
191	0x3bbde9f0	0.00579571
192	0xbc1a20c8	-0.00940723
193	0xbbeedfc3	-0.007289858
194	0xbd76365c	-0.060110435
195	0xbd87aeaa	-0.066251114
196	0xbe086633	-0.13320236
197	0xbd8c05e5	-0.06837062
198	0xbdcdb7f9	-0.100448556
199	0xbd1d8683	-0.03845836
200	0xbda99016	-0.08279435
201	0xbd434599	-0.047673795
202	0xbd77bdc5	-0.060483713
203	0x3cb71460	0.022348583
204	0xbbe3d126	-0.0069524227
205	0x3da5f8f6	0.08104126
206	0x3bdb8f02	0.0067003975
207	0x3d757dd7	0.059934463
208	0x3cf204d4	0.029543318
209	0x3d0222e0	0.03177154
210	0xbd1c80a2	-0.03820861
211	0x3d3acf73	0.045607995
212	0xbd8fb59b	-0.0701706
213	0x3added0b	0.0016931606
214	0xbda5fde9	-0.0810507
215	0xbbe70a1f	-0.007050767
216	0xbd33e252	-0.043917008
217	0xbd1884ae	-0.03723591
218	0xbde47e7e	-0.11156939
219	0x3d1f8a1e	0.03895008
220	0xbc990f22	-0.018683974
221	0xbc8d03e6	-0.017213773
222	0xbda61996	-0.08110349
223	0xbd8bf380	-0.06833553
224	0x3d69d6cc	0.057089612
225	0xbd5bc37d	-0.05365323
226	0x3ca9d990	0.020733625
227	0xbe0890fb	-0.13336556
228	0xbd104d25	-0.03522982
229	0xbd817887	-0.06321817
230	0x3d1670bc	0.036728606
231	0xbe0a5fa9	-0.13513054
232	0x3bfbcf3a	0.0076846154
233	0xbc57c821	-0.013170273
234	0xbdde8079	-0.10864348
235	0x3d7932e8	0.060839564
236	0xbcc23448	-0.02370657
237	0xbc879fc5	-0.016555676
238	0x3d766b58	0.060160965
239	0x3cf01230	0.029305547
240	0xbd9bc32b	-0.07605585
241	0xbd7150e6	-0.05891504
242	0xbdc378c9	-0.09544522
243	0xbdf6180c	-0.12016305
244	0xbdc0b059	-0.09408636
245	0xbd9e6815	-0.07734696
246	0x3d5d8b94	0.05408819
247	0xbd53826a	-0.051638044
248	0xbcf13ee7	-0.02944894
249	0x3daed30d	0.085363485
250	0xbd8514cf	-0.064981095
251	0xbd8149b8	-0.06312889
252	0xbc085d3d	-0.008323011
253	0xbc27bc7b	-0.010237808
254	0xbd4a21f3	-0.049348783
255	0xbbbd0ef0	-0.005769603

sequential/dense_1/MatMul f4 [10, 64]
0	0x3d69b13c	0.05705379
1	0x3db19bb3	0.086722754
2	0x3d5bac44	0.053631082
3	0xbe1f83fd	-0.15577693
4	0xbe8e8a2c	-0.27839792
5	0x3d6b3b64	0.057429686
6	0xbe8c6b81	-0.2742577
7	0x3e8b00b8	0.27148986
8	0xbe89c00e	-0.2690434
9	0x3e4fc02e	0.20288154
10	0x3e4ed163	0.20197062
11	0xbe708cd6	-0.23491225
12	0x3e39d54e	0.18147776
13	0x3e4404cc	0.19142455
14	0xbd07e846	-0.033180498
15	0xbdfef881	-0.12449742
16	0xbe8b4c7e	-0.27206796
17	0xbe873769	-0.26409462
18	0x3dd479b3	0.10374775
19	0x3e474bb0	0.19462466
20	0x3e5c3879	0.21505918
21	0xbe6d07aa	-0.23147455
22	0x3cde8b60	0.027166069
23	0xbe0f69cc	-0.14005202
24	0xbdca72ba	-0.098851636
25	0xbcbad1b6	-0.022805076
26	0xbdc7614a	-0.09735353
27	0xbed15fd6	-0.4089343
28	0x3b2fbc07	0.0026814954
29	0x3e1e3f81	0.15453912
30	0x3d44b8c0	0.048027754
31	0xbe956e85	-0.29185882
32	0xbec58ad8	-0.38582492
33	0xbe6f205c	-0.23352188
34	0xbe5790aa	-0.21051279
35	0xbeb35071	-0.3502231
36	0x3e173a47	0.14768325
37	0xbe97ffa4	-0.29687226
38	0xbeb369b8	-0.35041595
39	0xbe802303	-0.25026712
40	0x3e543f34	0.20727235
41	0xbd9818e5	-0.07426623
42	0x3e7eff39	0.24902047
43	0x3cd1a0c1	0.025589349
44	0x3d1a66f8	0.037695855
45	0x3d5ac9c1	0.053415064
46	0xbeaa9c3b	-0.3332232
47	0xbde9285f	-0.11384653
48	0x3e84c04f	0.2592797
49	0x3e8e5ab5	0.2780358
50	0x3eab0d71	0.33408692
51	0x3e7cf607	0.24703227
52	0xbeba3a93	-0.36372814
53	0x3da70356	0.08154933
54	0x3cf96c82	0.030447248
55	0x3e6e7581	0.23287012
56	0xbe8f2b77	-0.2796285
57	0xbe62c6cb	-0.22146146
58	0xbe81707b	-0.25281128
59	0x3e8209e5	0.25398174
60	0x3c340ede	0.010989873
61	0xbe0649e9	-0.13114132
62	0xbe42cfe8	-0.19024622
63	0xbdb00ced	-0.085962154
64	0xbe652334	-0.2237671
65	0xbebbefb5	-0.3670632
66	0xbbc5538c	-0.0060219225
67	0xbe82f309	-0.25576046
68	0xbe813c69	-0.25241402
69	0xbddda87d	-0.10823152
70	0xbe81aeb8	-0.25328612
71	0xbdc48da4	-0.09597328
72	0x3de684e8	0.112558186
73	0xbc03a587	-0.00803507
74	0x3c1f3d53	0.009719211
75	0xbc8d6cb5	-0.01726375
76	0x3c20b21f	0.009808092
77	0x3d64fca7	0.05590501
78	0xbea56f89	-0.32311657
79	0x3eae1592	0.34000832
80	0xbd40e518	-0.04709348
81	0x3e50845e	0.20362994
82	0xbe3ae61b	-0.18251841
83	0xbe1894f6	-0.14900574
84	0x3c115216	0.0088696685
85	0x3e598537	0.21242224
86	0xbe96594d	-0.29365006
87	0x3e38bfd3	0.18041925
88	0x3e7b322f	0.24530862
89	0x3cbbfe4b	0.022948405
90	0x3d5a2761	0.05326021
91	0x3e83fce1	0.2577887
92	0xbd120068	-0.03564492
93	0x3e647629	0.223107
94	0xbe11c76c	-0.1423623
95	0xbe1a22dc	-0.1505236
96	0xbdc7d11a	-0.0975668
97	0xbe1eef07	-0.15520869
98	0xbdbf44f3	-0.09339323
99	0xbeb0684a	-0.34454566
100	0xba3622d1	-0.0006947937
101	0xbe06f4a5	-0.13179262
102	0x3dfacf7e	0.12246607
103	0xbec27799	-0.3798187
104	0xbe845168	-0.25843358
105	0x3e92333e	0.2855472
106	0xbe2a766e	-0.1664674
107	0xbe5b3fa3	-0.21410994
108	0xbc2ba075	-0.010475268
109	0xbd53cd0a	-0.051709212
110	0xbe9fd63d	-0.31218138
111	0xbe988dba	-0.2979563
112	0x3e6d8b15	0.23197587
113	0xbe3724a5	-0.17885073
114	0x3e5ded0d	0.21672459
115	0xbe955692	-0.2916761
116	0x3de7581c	0.112961024
117	0xbcc63aab	-0.024197897
118	0xbdcaf771	-0.09910477
119	0xbeba40c0	-0.36377525
120	0x3ddde2d4	0.1083428
121	0x3e918029	0.2841809
122	0xbd22d3b4	-0.039752677
123	0x3dabd00b	0.083892904
124	0x3e3c2cb3	0.18376426
125	0x3e1ea657	0.15493141
126	0xbe9baea7	-0.30406687
127	0xbd4d57ab	-0.050132435
128	0xbd90b44b	-0.07065638
129	0xbe8dae64	-0.27672112
130	0x3e780ff1	0.24224831
131	0xbe3513c7	-0.17683326
132	0xbe4651e9	-0.19367184
133	0x3e636e8b	0.22210138
134	0xbdceadf5	-0.100917734
135	0x3dfc4b50	0.12319052
136	0xbd3d96df	-0.04628646
137	0xbcebe453	-0.028795397
138	0xbe5ef1eb	-0.21771972
139	0x3e4da964	0.20084149
140	0xbed9f000	-0.42565918
141	0xbe1df19e	-0.15424201
142	0xbacfcdc6	-0.0015854172
143	0xbe6e1016	-0.23248324
144	0xbde2e4fa	-0.1107883
145	0xbe13b4e3	-0.14424472
146	0x3e89098f	0.26765105
147	0x3e6eb4d1	0.23311163
148	0x3d60bb2a	0.054865994
149	0xbe7ab20d	-0.24481983
150	0x3e55a28b	0.20862786
151	0x3e255f94	0.16149741
152	0xbd89ca34	-0.0672802
153	0xbda6cb24	-0.08144215
154	0x3e0219d1	0.1270516
155	0x3e242a01	0.16031648
156	0xbe080cd3	-0.13286142
157	0x3e7082f6	0.23487458
158	0xbec8cf95	-0.39220873
159	0x3dd74f26	0.10513143
160	0x3deba564	0.11506155
161	0x3db027fd	0.08601377
162	0x3e3b1b61	0.18272163
163	0xbe485183	-0.19562344
164	0xbe0068ff	-0.12540053
165	0xbe4fd88b	-0.20297448
166	0xbea4cb61	-0.32186416
167	0x3d1b4607	0.03790858
168	0xbce01b72	-0.027356837
169	0x3e5cde1f	0.21569107
170	0x3ded154a	0.11576326
171	0x3dfdfdad	0.124019004
172	0x3e7a6385	0.24452026
173	0x3eb2c648	0.34916902
174	0x3e574ed4	0.21026164
175	0xbe1cf4cc	-0.15327758
176	0x3c7abc26	0.015303647
177	0x3d7e66a3	0.0621096
178	0x3e43e950	0.1913197
179	0xbc50d232	-0.012745427
180	0xbe336ad7	-0.17521225
181	0xbe9ab2c3	-0.3021451
182	0xbcf31428	-0.029672697
183	0xbe9013a8	-0.28139997
184	0xbe7913d8	-0.24323976
185	0x3df3664a	0.118847445
186	0xbe82379c	-0.25433052
187	0x3e364f41	0.1780367
188	0xbe2805a1	-0.16408397
189	0xbe9aa576	-0.30204362
190	0x3e94d86e	0.29071373
191	0x3ea77471	0.32706025
192	0xbe4f1e48	-0.20226395
193	0x3e56e025	0.20983942
194	0xbe8175cd	-0.25285187
195	0x3e28203d	0.16418548
196	0x3dc37e3f	0.09545564
197	0xbddc44af	-0.10755288
198	0x3d84f7dd	0.06492589
199	0x3df39c2f	0.11895024
200	0xbe487a51	-0.1957791
201	0x3e6e095c	0.23245758
202	0xbd3ec351	-0.046572987
203	0x3eaf3f6d	0.34228078
204	0x3c070b31	0.008242414
205	0xbe8839c8	-0.26606584
206	0xbe84d657	-0.25944778
207	0x3e69efbf	0.22845362
208	0x3e909643	0.2823964
209	0xbe88a6ef	-0.2668986
210	0xbdc4aa66	-0.096028134
211	0x3e0fc27f	0.14039038
212	0x3d5d28d1	0.053994004
213	0xbdbb5398	-0.091468036
214	0xbd89791f	-0.06712555
215	0x3e9797c5	0.29607978
216	0xbe4725e2	-0.19448045
217	0x3d7f3057	0.06230196
218	0x3da2be07	0.07946401
219	0xbe3fd24b	-0.18732564
220	0xbe85b68f	-0.26115844
221	0x3e42f7cc	0.1903984
222	0xbdf506be	-0.119641766
223	0x3e8e631a	0.27809983
224	0x3ebe4530	0.3716216
225	0xbea575d9	-0.32316473
226	0xbe6112a3	-0.21979766
227	0xbe36801e	-0.1782231
228	0xbd5e31a6	-0.054246567
229	0x3ca4816a	0.02008124
230	0x3e8578f5	0.26068845
231	0xbe88b1df	-0.26698205
232	0x3b0c0716	0.0021366528
233	0x3e04ccf9	0.12968816
234	0xbeae3c66	-0.34030455
235	0x3e920c32	0.2852493
236	0x3ddc92fe	0.10770224
237	0xbdc72828	-0.09724456
238	0x3e81cddb	0.25352368
239	0xbd4d4616	-0.050115667
240	0xbdbe5b2c	-0.092947334
241	0xbe3262bf	-0.17420481
242	0xbd1172b5	-0.035509784
243	0xbe9fa622	-0.31181437
244	0xbc60aa59	-0.013712489
245	0x3e18f2b7	0.14936338
246	0xbe444d56	-0.19170126
247	0x3e9fadb7	0.3118722
248	0xbe2d0f3c	-0.16900343
249	0xbd7c2eee	-0.061568193
250	0xbe879e49	-0.2648795
251	0x3e1067d0	0.14102101
252	0xbeaa87c1	-0.33306697
253	0x3c2741ff	0.010208606
254	0xbc5d8463	-0.013520333
255	0xbe83bc7a	-0.25729734

sequential/conv2d/Conv2D f4 [32, 3, 3, 1]
0	0xbd8134ec	-0.06308922
1	0xbbb149fe	-0.005410432
2	0xbdc23d4d	-0.094843484
3	0xbe57e2a5	-0.21082552
4	0x3de5ed19	0.112268634
5	0x3d9b4bef	0.075828426
6	0xbdbbed91	-0.091761716
7	0x3e33afbb	0.17547505
8	0x3d9fac16	0.07796495
9	0x3e970ee7	0.29503557
10	0x3de21ba2	0.11040427
11	0x3d5be543	0.053685438
12	0x3ccb6c55	0.02483193
13	0xbd8ef19f	-0.06979679
14	0xbe1fec7f	-0.1561756
15	0xbd5eb99a	-0.054376222
16	0xbe2f3dc3	-0.17113404
17	0xbdcfad39	-0.101404615
18	0x3e5ac07f	0.21362494
19	0xbe61d78e	-0.22054884
20	0xbe706a36	-0.23478016
21	0x3d39af11	0.045332972
22	0xbd82d954	-0.06389108
23	0xbea04caa	-0.3130849
24	0x3e669938	0.22519386
25	0xbd469acd	-0.048487473
26	0xbee068e1	-0.43830016
27	0x3e3ca870	0.18423629
28	0xbe201c03	-0.15635686
29	0x3cca702e	0.024711695
30	0x3e0d918a	0.1382505
31	0xbee6382c	-0.4496473
32	0x3e38b59f	0.18038033
33	0xbd18a3e7	-0.037265684
34	0xbde7a431	-0.11310614
35	0x3e1289f6	0.1431044
36	0x3e2287f3	0.15872173
37	0x3df09c88	0.11748606
38	0xbe768b1c	-0.24076504
39	0x3e3af18b	0.18256204
40	0x3ce18524	0.027529307
41	0xbe67478c	-0.22585887
42	0x3e710d1c	0.23540157
43	0xbd25665e	-0.040380828
44	0xbe914e86	-0.2838022
45	0xbea996b7	-0.331228
46	0xbe9429ee	-0.2893824
47	0xbd2f6e74	-0.042829946
48	0xbd9356ff	-0.071943276
49	0xbcb101ee	-0.021607365
50	0xbd9b56a4	-0.07584885
51	0x3eb5defa	0.3552168
52	0x3e03fbd2	0.1288903
53	0x3e6b01fa	0.22949973
54	0xbcf3c763	-0.029758161
55	0xbd8985f2	-0.06715001
56	0xbe6c2c67	-0.23063813
57	0x3e102cf4	0.14079648
58	0xbd989d3c	-0.07451865
59	0xbda893bf	-0.08231305
60	0x3e0827d5	0.13296445
61	0x3e183bda	0.14866582
62	0x3e292524	0.16518074
63	0x3d0ec712	0.034857817
64	0x3db738ec	0.08946404
65	0x3ea0260b	0.31279024
66	0xbe480cf1	-0.19536187
67	0xbd7f91f8	-0.062395066
68	0x3e0e3c72	0.13890246
69	0xbe89fb2d	-0.26949444
70	0xbea341df	-0.31886193
71	0xbe86270c	-0.26201665
72	0x3d497606	0.04918482
73	0x3e53ba67	0.20676576
74	0x3e17d773	0.14828281
75	0xbdf00a14	-0.11720672
76	0xbeb77043	-0.35827836
77	0xbdeb997e	-0.11503886
78	0x3c3d6bb1	0.01156132
79	0x3debed86	0.115199134
80	0x3d399722	0.045310147
81	0x3b060d6b	0.0020454775
82	0x3e1567e3	0.14590411
83	0xbe168fba	-0.14703265
84	0xbddbad23	-0.107263826
85	0x3dfff8ea	0.124986485
86	0xbd364f63	-0.044509303
87	0xbe118029	-0.14209045
88	0xbcb8fcfc	-0.02258157
89	0x3dc54db2	0.0963396
90	0xbdfbd8ed	-0.12297235
91	0x3db261d8	0.087100685
92	0xbd84fd20	-0.06493592
93	0xbda58e6c	-0.080838054
94	0x3e2ced30	0.16887355
95	0xbe2aef2e	-0.16692802
96	0xbe5ad5ba	-0.21370593
97	0x3d8eb539	0.06968159
98	0x3da442d4	0.08020559
99	0x3daf0d49	0.08547456
100	0x3bf3ffd9	0.007446271
101	0xbcee1e46	-0.02906717
102	0xbe4c7332	-0.19965819
103	0xbdc06fdf	-0.09396338
104	0x3e37f045	0.1796275
105	0xbea15408	-0.31509423
106	0x3d9d914d	0.076937295
107	0x3e50ca14	0.20389587
108	0xbdd511e5	-0.10403804
109	0x3d3cd5f0	0.046102464
110	0x3d85036d	0.06494794
111	0xbd87946c	-0.06620106
112	0x3caff62a	0.021479685
113	0x3de36e60	0.11105037
114	0xbb862740	-0.0040940344
115	0x3d953f51	0.07287467
116	0x3dd13411	0.10215009
117	0x3db15756	0.08659236
118	0xbcff9fba	-0.031204093
119	0x3d5eeec1	0.054426912
120	0x3d98b2c2	0.0745597
121	0x3d5f55b5	0.054525096
122	0x3bccd8b7	0.0062514204
123	0x3c3220bc	0.010872062
124	0x3c177193	0.009243387
125	0x3bb803b3	0.0056156754
126	0xbe0b2412	-0.13587978
127	0xbdf0261b	-0.11726018
128	0xbd1525a2	-0.036412843
129	0xbb2c4555	-0.0026286442
130	0x3b367657	0.0027841532
131	0xbd6cc618	-0.057806104
132	0xbc946ac7	-0.018117322
133	0xbbefc06f	-0.007316641
134	0x3e098795	0.13430627
135	0x3e5654d1	0.20930792
136	0x3dc9eb8f	0.09859382
137	0x3c77a79c	0.015115645
138	0x3df1697c	0.11787698
139	0x3dac376b	0.08409008
140	0xbeb0d488	-0.34537148
141	0x3e49f801	0.19723512
142	0xbe1e0bf8	-0.15434253
143	0xbead739b	-0.33877262
144	0x3cb652d3	0.02225629
145	0x3d938f2c	0.07205042
146	0x3e9161a0	0.28394794
147	0x3d010df8	0.031507462
148	0x3d28dc40	0.04122567
149	0x3e1ade9e	0.15123984
150	0xbe55f94b	-0.20895879
151	0xbea95c6d	-0.33078328
152	0xbe8f2745	-0.27959648
153	0x3e1ad72a	0.15121141
154	0xbe36fcac	-0.17869824
155	0xbe9cb880	-0.30609512
156	0x3b974b79	0.0046171513
157	0x3d89b49a	0.067239
158	0x3e304480	0.1721363
159	0x3c661071	0.014042006
160	0x3e474815	0.19461091
161	0xbdb7893b	-0.089617215
162	0x3e41f026	0.18939266
163	0x3d2d9ce5	0.042385954
164	0xbea95bbb	-0.33077797
165	0xbefea176	-0.4973256
166	0xbee656cf	-0.44988105
167	0x3ce1e213	0.02757362
168	0xbe13ca30	-0.14432597
169	0x3e6f8926	0.23392162
170	0x3e94f763	0.2909499
171	0x3d179d57	0.037015285
172	0x3d1211a9	0.035661373
173	0xbe462554	-0.19350177
174	0x3d1b2b0b	0.037882846
175	0x3dc871fc	0.09787366
176	0x3d8847c5	0.06654314
177	0xbd24bd6e	-0.040219717
178	0x3d401d1d	0.046902765
179	0x3d54f79b	0.051993947
180	0x3e6131fb	0.21991722
181	0x3e4d09dd	0.20023294
182	0x3db587b0	0.08863771
183	0x3a99603b	0.0011701653
184	0x3e0d61aa	0.13806787
185	0x37b07290	2.1034182e-05
186	0xbe959128	-0.29212308
187	0xbec373a1	-0.38174155
188	0xbe99e516	-0.3005759
189	0xbd4091b0	-0.04701394
190	0xbe82a442	-0.25515944
191	0xbe9c673c	-0.30547512
192	0x3e85c200	0.26124573
193	0xbdbfb714	-0.09361091
194	0xbe6de2bd	-0.23231025
195	0x3e98489b	0.29742894
196	0x3e80bd86	0.25144595
197	0x3d0717f5	0.03298183
198	0xbe51ab33	-0.20475464
199	0x3e238889	0.15970053
200	0x3d237d4c	0.039914414
201	0x3e073a17	0.13205753
202	0x3e555852	0.20834473
203	0xbd6f51b5	-0.05842753
204	0xbd404e98	-0.046949953
205	0xbe25130a	-0.16120544
206	0xbe47aa65	-0.19498594
207	0x3d356f01	0.044295315
208	0xbe5ac382	-0.21363643
209	0xbe04d651	-0.1297238
210	0xbc6f18f6	-0.0145933535
211	0x3b1d06be	0.0023960317
212	0x3e65593f	0.22397326
213	0x3df6e7d0	0.120559335
214	0x3e06b232	0.13153914
215	0xbe090bfa	-0.13383475
216	0xbe085658	-0.13314188
217	0x3d333fb7	0.043761935
218	0xbe5944e3	-0.21217684
219	0xbcf89636	-0.030345064
220	0x3c8ea26e	0.017411437
221	0x3d9c2a4b	0.07625254
222	0xbc173dcb	-0.009231041
223	0x3e1e5df2	0.15465525
224	0xbdab3d9e	-0.08361362
225	0xbd54dce6	-0.051968478
226	0xbe19cbfc	-0.1501922
227	0x3cbcf506	0.023066055
228	0xbe32a234	-0.17444688
229	0x3d9c6988	0.07637316
230	0x3dac5c09	0.08415992
231	0xbdbdd223	-0.09268596
232	0xbdf0f40a	-0.11765297
233	0xbd0beb6b	-0.03416006
234	0x3d95527f	0.072911255
235	0x3d8a33d0	0.06748164
236	0xbe5c558f	-0.21517013
237	0xbb298429	-0.0025866127
238	0x3d8251f5	0.06363288
239	0x3d2fc898	0.04291591
240	0x3cfe79b7	0.031063898
241	0x3e01a15e	0.12659213
242	0xbd923eee	-0.07140909
243	0xbd2e3170	-0.042527616
244	0x3daf1de8	0.08550626
245	0x3e5058c6	0.20346364
246	0x3cf112f2	0.02942798
247	0x3de5d96f	0.11223113
248	0xbd70aea0	-0.058760285
249	0xbc853fc9	-0.016265767
250	0xbe594de7	-0.21221124
251	0xbe558797	-0.20852505
252	0x3e8a9356	0.27065533
253	0x3dacb632	0.084331885
254	0xbdcde960	-0.100542784
255	0x3dcc68c4	0.0998092

sequential/conv2d_1/Conv2D f4 [64, 3, 3, 32]
0	0x3d6b86d9	0.057501648
1	0xbca779c4	-0.020443805
2	0xbe546141	-0.20740224
3	0x3df7e5b7	0.121043615
4	0x3da15ccb	0.07879027
5	0xbb85bf46	-0.0040816395
6	0xbd3acc69	-0.045605097
7	0xbe2396fd	-0.15975566
8	0xbe40925d	-0.18805833
9	0xbddbefab	-0.107390724
10	0xbbe04f9a	-0.0068454267
11	0xbb8fb7c5	-0.0043859207
12	0x3dcf62d7	0.10126274
13	0x3c51c59d	0.012803462
14	0xbcf186d1	-0.02948323
15	0x3d8a7c24	0.06761959
16	0xbe481f1e	-0.1954312
17	0x3d7c9d65	0.06167354
18	0x3acf3830	0.0015809592
19	0xbccf5b5f	-0.025312124
20	0xbe0e1ee3	-0.1387897
21	0xbdd14487	-0.10218149
22	0xbd474347	-0.048648145
23	0x3de14aee	0.1100062
24	0x3ddcfe71	0.10790718
25	0x3d87448f	0.066048734
26	0x3c78d40b	0.015187274
27	0xbd866d3f	-0.06563806
28	0xbe037739	-0.12838449
29	0x3db4fa7a	0.08836837
30	0xbe4296a9	-0.19002785
31	0x3d4d14c1	0.05006862
32	0x3db92da6	0.0904191
33	0xbe0ceed9	-0.13762988
34	0xbd842dda	-0.06454058
35	0x3e03d3ca	0.1287376
36	0xbd9ee157	-0.07757824
37	0xbd5e1e67	-0.054228213
38	0x3d9d889d	0.076920725
39	0xbdb02781	-0.08601285
40	0x3c7f48a1	0.015581281
41	0x3c5c09c4	0.013430063
42	0xbc95a9fc	-0.018269531
43	0xbd6eef8e	-0.058333926
44	0xbd1974f8	-0.037465066
45	0x3dc4df72	0.09612931
46	0x3d80b328	0.06284171
47	0x3d2928fd	0.041298855
48	0xbe11caf8	-0.14237583
49	0x3d79b7a0	0.060966134
50	0x3cb073f9	0.021539675
51	0x3ab74ace	0.0013984086
52	0xbe678d6a	-0.22612539
53	0x3d46cbe0	0.048534274
54	0xbab28618	-0.0013620285
55	0x3d04356a	0.032277502
56	0xbcc84888	-0.024448648
57	0xbde33794	-0.11094585
58	0x3d4582b2	0.048220344
59	0xbcd229bf	-0.025654672
60	0xbe397a90	-0.1811316
61	0xbbb6e6cc	-0.0055817124
62	0xbe117228	-0.14203703
63	0xbcefd5b6	-0.02927671
64	0x3cb8bd1e	0.022551116
65	0xbdf45d42	-0.1193185
66	0xbd23880e	-0.039924674
67	0x3e01f147	0.12689696
68	0x3dc3e649	0.09565408
69	0x3dfcc786	0.123427436
70	0x3e0f003b	0.13964932
71	0xbebd087f	-0.36920545
72	0xbd43a033	-0.0477602
73	0xbd727cce	-0.059201054
74	0x3d290185	0.041261215
75	0xbc9dbcde	-0.019255098
76	0xbb6081ce	-0.0034257057
77	0x3d18d276	0.037310086
78	0x3c92c41d	0.01791578
79	0x3cb6035a	0.022218395
80	0xbe75b9c9	-0.23996653
81	0x3d88f1b5	0.06686727
82	0x3e5d0a25	0.21585901
83	0x3da5c922	0.08095004
84	0xbe9e34b2	-0.30899578
85	0x3df6b297	0.12045782
86	0xbd437b9d	-0.04772531
87	0x3dbd6479	0.09247679
88	0x3db5d13f	0.08877801
89	0xbdf6b58f	-0.12046348
90	0xbd14bf15	-0.036315043
91	0xbe4a66ca	-0.19765773
92	0xbe9dc38e	-0.3081326
93	0x3e00090e	0.12503454
94	0xbea5a132	-0.32349545
95	0x3d3d5dfd	0.046232212
96	0x3c61b64b	0.013776372
97	0xbcf7fefd	-0.030272955
98	0xbdcd9cf7	-0.10039704
99	0xbd44ed65	-0.04807796
100	0x3b5fa939	0.0034127964
101	0xbd98fd33	-0.07470169
102	0xbc90b8ad	-0.017666185
103	0x3d856e70	0.06515205
104	0xbdd2fd8c	-0.103022665
105	0x3d0c12db	0.03419767
106	0xbbd85fd4	-0.0066032205
107	0xbd88f418	-0.06687182
108	0xbcf628ec	-0.03004881
109	0x3e1eba41	0.15500738
110	0xbc672615	-0.014108201
111	0x3d69a5de	0.05704295
112	0x3c9a01e8	0.018799737
113	0x3d5b43c6	0.05353143
114	0xbe37ed3b	-0.1796159
115	0x3db6123b	0.08890196
116	0xbc4dcbe5	-0.012560819
117	0xbcf3ce49	-0.02976145
118	0x3d24ef6f	0.040267404
119	0x3c46f0a0	0.01214233
120	0x3c90f8ee	0.017696824
121	0x3ca7f6e0	0.020503461
122	0x3dd1f97c	0.102526635
123	0x3cafe947	0.02147354
124	0xbe08f576	-0.13374886
125	0x3da6ee87	0.08150964
126	0xbd09d454	-0.033649758
127	0xbd9bd8fe	-0.07609747
128	0xbd4d2e42	-0.050092943
129	0xbd31cb70	-0.043406904
130	0xbe26fdea	-0.16307798
131	0xbdb825da	-0.089915946
132	0xbd161ba1	-0.036647443
133	0xbc593343	-0.013256851
134	0xbdfabc30	-0.12242925
135	0x3d948c87	0.07253366
136	0x3dbb353d	0.09141014
137	0x3df22470	0.11823356
138	0xbc134f60	-0.008991092
139	0xbe8532fa	-0.26015455
140	0x3dc81409	0.097694464
141	0x3d8a3823	0.067489885
142	0x3c0dd329	0.008656302
143	0x3de5cd99	0.11220855
144	0x3de298ca	0.110642985
145	0x3d21b2fc	0.039477333
146	0xbe1667bc	-0.14688009
147	0x3de54b1e	0.11195968
148	0x3e04edb9	0.12981309
149	0xbd89dde0	-0.067317724
150	0x3df49965	0.1194332
151	0xbdca03bb	-0.09863993
152	0xbd31fcfd	-0.04345416
153	0xbc79382c	-0.015211146
154	0xbc56ec75	-0.013117899
155	0x3e0c2695	0.13686593
156	0xbd0e2657	-0.034704532
157	0xbd962da0	-0.07332921
158	0x3d14f281	0.036364082
159	0xbe2d2314	-0.16907912
160	0xbbc5f8ef	-0.006041638
161	0x3d6e6064	0.058197394
162	0xbd2b7947	-0.041863706
163	0x3c419bcc	0.01181693
164	0xbb6d3708	-0.0036196131
165	0xbd97e592	-0.07416834
166	0x3dabaa8a	0.08382137
167	0x3e610652	0.21975067
168	0xbd6bf7fa	-0.057609536
169	0x3d95f2ae	0.07321678
170	0x3d30d8b6	0.04317542
171	0xbb886d14	-0.0041633938
172	0x3de7bdca	0.11315496
173	0x3da7e578	0.081980646
174	0x3d040e0e	0.032239966
175	0x3d0bd0f1	0.03413481
176	0x3e4d46f8	0.20046604
177	0x3d79ac1e	0.06095516
178	0xbe7b3a0a	-0.24533859
179	0x3e077eb6	0.1323193
180	0x3d3827a1	0.044959668
181	0xbc90d22f	-0.017678348
182	0x3dc2d3ee	0.09513079
183	0x3dc3dd1f	0.0956366
184	0x3d94ee6b	0.07272037
185	0x3dcd610f	0.10028278
186	0x3e0e843a	0.13917628
187	0x3de55b0e	0.11199008
188	0x3c38ccba	0.011279279
189	0xbde8e034	-0.11370888
190	0x3dd8c2cf	0.10584032
191	0xbe2ef028	-0.170838
192	0xbd67a43b	-0.056553107
193	0xbce2aff7	-0.027671797
194	0x3d963874	0.07334986
195	0x3d65171a	0.055930234
196	0xbd6fbfba	-0.058532454
197	0xbe33ca4c	-0.17557639
198	0xbda5e7df	-0.081008665
199	0x3e4f0899	0.20218123
200	0x3de313bb	0.11087748
201	0xbc60c79d	-0.0137194665
202	0x3a5b6b8e	0.0008370214
203	0x3d9eec3d	0.077599026
204	0xbda9c875	-0.08290187
205	0x3d04ad95	0.032392103
206	0xbdf8d901	-0.12150765
207	0xbd0ca699	-0.034338567
208	0x3e57a1a9	0.21057762
209	0x3c9c625c	0.01908987
210	0xbd54a83c	-0.051918253
211	0x3d556ba9	0.052104626
212	0x3d96506a	0.073395565
213	0x3dbb0dd0	0.09133494
214	0xbd76c57e	-0.060246937
215	0xbda37f77	-0.07983296
216	0xbdf085c9	-0.117442675
217	0x3cccaf3e	0.024985906
218	0xbd190c6e	-0.03736537
219	0x3ddead4c	0.108728975
220	0x3c9fcfa5	0.019508192
221	0x3dbdb8db	0.09263774
222	0x3e29745d	0.16548295
223	0xbe12187c	-0.14267153
224	0xbdfe9da1	-0.12432409
225	0x3d26b846	0.04070308
226	0x3d9f5d42	0.077814594
227	0xbd3eea59	-0.04661021
228	0xbc61fbb0	-0.013792917
229	0xbd73faab	-0.059565227
230	0x3cd6c736	0.026218038
231	0x3e193bd2	0.14964226
232	0x3e643c56	0.22288641
233	0xbc4278b0	-0.011869594
234	0xbdc8e4ff	-0.098093025
235	0xbd0b5bba	-0.034023024
236	0xbdfe7e5c	-0.12426445
237	0x3ce5b7a6	0.028041672
238	0xbd9a0e20	-0.075222254
239	0x3d9a9d6b	0.07549556
240	0x3e0a13b0	0.13484073
241	0x3d215113	0.03938396
242	0xbcfe725c	-0.03106039
243	0xbdfd0d4d	-0.123560525
244	0x3e21d6ab	0.15804546
245	0x3dfac13e	0.12243889
246	0x3cf9101e	0.030403193
247	0xbcd14c6d	-0.025549138
248	0xbdb98ae4	-0.090596944
249	0xbda4dc66	-0.0804985
250	0xbd43e2cc	-0.047823712
251	0xbc7eb7ba	-0.0155467335
252	0x3b3a0a8a	0.002838763
253	0xbd7330b6	-0.059372626
254	0xbdcf696b	-0.10127529
255	0xbeb46889	-0.35236004

sequential/conv2d_2/Conv2D f4 [64, 3, 3, 64]
0	0x3d1c28f4	0.038124993
1	0x3e87a824	0.2649547
2	0x3e5071a0	0.20355844
3	0x3de9bc68	0.11412889
4	0xbca02a1d	-0.019551331
5	0x3e1d8e79	0.1538638
6	0x3d4eb297	0.050463285
7	0x3d408fb9	0.047012065
8	0x3db77dba	0.08959527
9	0x3dfde39a	0.12396927
10	0x3c97cf65	0.01853151
11	0xbccc3b93	-0.024930751
12	0x3e2de69a	0.16982499
13	0x3ddd7338	0.10812992
14	0xbd3825c3	-0.044957887
15	0x3d94d8de	0.07267927
16	0xbc0f2f4f	-0.008739307
17	0x3dcf2665	0.10114745
18	0xbd4e5b75	-0.05038019
19	0x3dd72bc3	0.10506394
20	0xbcd34d86	-0.025793802
21	0x3d41c1e9	0.047304068
22	0x3dac2c02	0.08406831
23	0x3d661117	0.056168642
24	0x3dbdb4a6	0.092629716
25	0x3e15a68e	0.14614317
26	0xbd17164d	-0.036886502
27	0x3e060890	0.13089204
28	0xbda37f60	-0.07983279
29	0x3de4c713	0.11170783
30	0x3daea616	0.08527772
31	0x3d7eb248	0.06218174
32	0x3da44b7e	0.080222115
33	0xbd802bd7	-0.06258362
34	0xbc449cbc	-0.012000259
35	0x3d0af357	0.033923473
36	0x3e205d2a	0.1566054
37	0x3ca8a686	0.020587217
38	0x3df68699	0.12037391
39	0xbcbe9b7f	-0.023267506
40	0x3e40b974	0.18820745
41	0x3d87b0ea	0.066255406
42	0x3e1ad2ec	0.15119523
43	0x3c8a6ab3	0.016896581
44	0xbda817f6	-0.08207695
45	0xbc910748	-0.017703667
46	0x3e015c7c	0.12632936
47	0xbc9ce630	-0.01915273
48	0x3d2e1d6c	0.042508528
49	0xbe17cfca	-0.14825359
50	0x3e35c478	0.17750728
51	0x3e01b62a	0.12667146
52	0x3d355bae	0.044276886
53	0x3e6d66fd	0.23183818
54	0x3e084a5c	0.13309616
55	0x3e92256c	0.28544176
56	0x3e9cb10b	0.30603823
57	0x3deb5fa8	0.11492854
58	0x3e4d6159	0.20056666
59	0x3e86c091	0.26318792
60	0x3e850652	0.25981385
61	0x3e49931a	0.19685021
62	0xbc350037	-0.0110474145
63	0xbd7c6552	-0.061620064
64	0xbd9ad84e	-0.07560788
65	0xbd9dd8bd	-0.07707355
66	0xbd258735	-0.040412147
67	0x3d1babde	0.038005702
68	0x3e0fe466	0.14051971
69	0xbe11158b	-0.14168374
70	0xbe6ec042	-0.23315528
71	0xbdc2e7bc	-0.09516856
72	0xbd539ebc	-0.051665053
73	0xbd3a8663	-0.045538317
74	0x3d0c7c41	0.034298185
75	0xbc4516a4	-0.012029324
76	0x3e1b47c0	0.15164089
77	0x3e03bdbe	0.1286535
78	0x3e6231fa	0.22089377
79	0x3d67936d	0.05653708
80	0x3c05082b	0.008119623
81	0xbe3321fb	-0.17493431
82	0xbe0e049d	-0.13868947
83	0xbe1629c9	-0.14664377
84	0xbd167707	-0.036734607
85	0xbe768e36	-0.24077687
86	0xbaded3c6	-0.0017000369
87	0xbe1d4f69	-0.15362324
88	0x3d33b702	0.0438757
89	0xbe1f67a7	-0.15566884
90	0x3dc0465e	0.093884215
91	0xbdd8d197	-0.10586851
92	0x3da631d7	0.08114975
93	0x3d0a72aa	0.03380076
94	0x3e1e64d1	0.15468146
95	0xbe546427	-0.2074133
96	0xbd6a4802	-0.05719758
97	0xbd9e3275	-0.07724468
98	0x3e743827	0.23849545
99	0xbd28f2f0	-0.04124731
100	0xbe10a5ed	-0.14125796
101	0x3d153d29	0.03643528
102	0x3e0c9a48	0.13730729
103	0xbb491c94	-0.00306872
104	0xbe41bbf3	-0.18919353
105	0xbd845e3e	-0.06463288
106	0x3d717e4e	0.058958344
107	0xbe42d19d	-0.19025274
108	0xbd1d8423	-0.038456094
109	0x3d041da5	0.032254834
110	0xbd696699	-0.05698261
111	0xbc85773b	-0.016292205
112	0xbe4813c6	-0.19538793
113	0xbcdb8d0c	-0.026800655
114	0x3d801f2f	0.06255948
115	0x3e580e07	0.21099101
116	0xbd7ef9cb	-0.06224994
117	0x3e196bce	0.1498253
118	0xbcb0bdbf	-0.021574853
119	0x3e02109e	0.12701651
120	0x3da64206	0.08118062
121	0xbd35d234	-0.04438992
122	0xbda9566a	-0.08268435
123	0x3e3045bf	0.17214106
124	0xbbeaa537	-0.0071608084
125	0xbe2a8d6f	-0.16655515
126	0xbdbae66b	-0.0912598
127	0x3d43ea01	0.047830585
128	0x3d8a44f8	0.06751436
129	0xbcbaf5db	-0.022822311
130	0xbe247875	-0.16061576
131	0xbe1a1ee2	-0.15050843
132	0xbe499187	-0.1968442
133	0xbe838ab9	-0.25691774
134	0xbd22a28b	-0.039705794
135	0x3e5e4bd1	0.21708609
136	0xbdc87d53	-0.09789529
137	0xbe8370ca	-0.2567199
138	0xbda9b98d	-0.08287344
139	0xbe1dce9b	-0.15410845
140	0xbe23979a	-0.159758
141	0x3cd86865	0.026416967
142	0xbe3d9eda	-0.18517628
143	0x3dc64fa8	0.09683162
144	0x3d48a848	0.04898861
145	0xbddb3356	-0.10703151
146	0xbea6649b	-0.3249863
147	0xbe9124bd	-0.28348342
148	0x3e289451	0.16462828
149	0xbe9329b0	-0.28742743
150	0x3cd46f34	0.025931932
151	0x3d6d4001	0.057922367
152	0xbe615be7	-0.22007714
153	0xbd36fd34	-0.044675067
154	0x3dfd37d7	0.12364166
155	0xbe92743e	-0.2860431
156	0x3e1663e6	0.14686546
157	0xbe0f21fe	-0.1397781
158	0xbe31085a	-0.17288342
159	0x3d2a714f	0.041611966
160	0xbd75752c	-0.059926197
161	0xbe5cd5ed	-0.21565981
162	0x3dc955f9	0.09830851
163	0x3d93601f	0.07196068
164	0x3d85239f	0.06500935
165	0x3d67d1eb	0.056596678
166	0xbd783178	-0.060594052
167	0x3dcb567a	0.099286035
168	0x3d5294c5	0.05141141
169	0xbe1c6dcd	-0.1527626
170	0x3d19ee6e	0.0375809
171	0x3cfec075	0.03109763
172	0x3e15c912	0.14627483
173	0xbe855130	-0.26038504
174	0x3dfe7ca1	0.12426115
175	0xbbabc454	-0.00524191
176	0xbe9f380b	-0.31097445
177	0x3e61e5f3	0.22060375
178	0xbe1ec50b	-0.15504853
179	0xbe8577c3	-0.26067933
180	0xbd0b0bc3	-0.033946764
181	0xbb22b30f	-0.0024825966
182	0x3b076720	0.0020660833
183	0xbdabe909	-0.08394057
184	0x3d4f951d	0.050679315
185	0x3dbc0917	0.09181421
186	0xbe894acb	-0.26814875
187	0x3bcb82cf	0.006210662
188	0xbe0d3950	-0.13791394
189	0xbeb351cb	-0.3502334
190	0x3b20157c	0.0024426868
191	0x3d1f8459	0.038944576
192	0xbca51d93	-0.020155704
193	0xbb9007e8	-0.0043954737
194	0x3d3ddc24	0.04635252
195	0xbda82c47	-0.0821157
196	0x3d932cfd	0.07186315
197	0x3de159d8	0.110034645
198	0xbe0b151f	-0.13582276
199	0x3d164601	0.036687855
200	0x3d9e8fb4	0.07742253
201	0x3cc8a38b	0.024492046
202	0xbc216cb0	-0.009852573
203	0xbd06f1d7	-0.03294548
204	0x3e4bc4aa	0.1989924
205	0x3e2380a7	0.15967046
206	0x3d4026c4	0.04691197
207	0x3c3cf37a	0.011532659
208	0x3e1d2d0c	0.15349215
209	0x3da4f351	0.080542214
210	0x3da230fb	0.079194985
211	0xbdc99ef5	-0.09844772
212	0xbd8c084c	-0.0683752
213	0xbdc50472	-0.096199885
214	0x3d8ef9f9	0.06981272
215	0x3df142f1	0.11780346
216	0x3e2aa031	0.1666267
217	0xbd196a94	-0.037455156
218	0x3d23e373	0.040011834
219	0x3d853926	0.06505041
220	0x3dc17d58	0.094477355
221	0x3ea7a35d	0.32741824
222	0x3e171ceb	0.14757125
223	0xbc8c52f7	-0.017129404
224	0xbcfb7261	-0.030694189
225	0x3dff39d7	0.12462204
226	0xbd362fdb	-0.044479232
227	0xbd6480fe	-0.05578708
228	0x3d919dab	0.07110151
229	0x3d3bd292	0.045855112
230	0x3da5cd0f	0.080957524
231	0xbde47541	-0.11155177
232	0x3d30f6aa	0.043203987
233	0x3e804d83	0.25059137
234	0x3e395f47	0.18102752
235	0xbd7b9c76	-0.06142851
236	0xbe4941ef	-0.19654058
237	0x3d1f7252	0.038927384
238	0x3d82f53c	0.06394431
239	0xbcad5e77	-0.021163208
240	0x3d93252b	0.071848236
241	0xbc5e864f	-0.013581826
242	0x3e1d85eb	0.15383117
243	0x3e45e514	0.19325668
244	0x3d7c25b7	0.061559405
245	0xba862cba	-0.0010236718
246	0x3e17bcb7	0.14818083
247	0xbcf668f6	-0.030079346
248	0x3da35747	0.07975631
249	0x3d8db430	0.06919134
250	0x3e3c57d6	0.18392882
251	0xbd1fa6c2	-0.038977392
252	0x3e255b9f	0.16148232
253	0xbdaec6c9	-0.08534009
254	0x3b357cb9	0.0027692749
255	0xbccef0d9	-0.02526133
