CHAPTER_5/DigitClassifier/app/src/main/assets/keras_model.tflite (tflite, 408572 bytes, 4 tensors)

sequential_1/dense_4/BiasAdd/ReadVariableOp f4 [128]
-0.038220167 0.10234434 0.12091088 -0.014427129 0.13850702 0.021473823 0.058516625 0.034893822
0.063229024 -0.054322712 0.02250954 0.13233674 -0.01293961 0.04356097 0.048402745 -0.028770406
0.003824178 -0.056566462 0.045666564 0.015571289 0.16236784 0.03686367 -0.06568874 0.12678939
-0.07957813 0.1206798 0.07176392 -0.028287383 0.047720782 -0.002829528 -0.08127915 -0.07207709
0.069099165 -0.00974916 0.047880117 -0.01694262 -0.073935315 0.1019522 0.019433532 0.04232498
0.12515919 -0.11170571 -0.10529966 0.11001531 -0.050121877 0.019751059 0.09516987 0.032301683
0.098300666 0.02386191 -0.054610174 0.020663824 -0.037281495 0.0028558902 0.05581999 -0.06559519
0.00128213 -0.04331514 0.21748473 0.17395219 -0.110792875 0.16824612 0.0033821585 -0.0019616429
-0.042034764 -0.09499274 0.088117786 0.12001207 -0.034189705 0.16975187 0.029912377 0.16305587
0.1788217 -0.07017217 0.054757353 -0.0064715655 0.15307914 -0.05501156 0.009870435 0.11948778
-0.05925112 -0.011800021 0.20097613 -0.027175816 0.059288245 -0.14156148 0.049183972 -0.021058928
0.025787525 -0.02616689 0.007002645 -0.068715505 0.06028786 0.07596312 -0.046772223 0.06248419
0.09578639 0.05239699 0.18095951 0.078430474 0.03139344 0.00395231 0.113446556 0.08734078
0.13990057 0.016774228 0.12863332 -0.01824252 -0.0870262 -0.020882241 -0.032097686 -0.043068103
-0.030049227 -0.12403495 0.017901514 0.14451498 -0.032848317 -0.012576517 -0.005069003 0.13218269
0.05871923 0.104895 -0.04050756 0.13674212 0.0065534515 0.16766962 0.16474485 0.03182806
00000000: c08c 1cbd e999 d13d 20a0 f73d c45f 6cbc
00000010: c9d4 0d3e dfe9 af3c 21af 6f3d d3ec 0e3d
00000020: 387e 813d 7e81 5ebd ed65 b83c 4883 073e
00000030: a800 54bc fd6c 323d f541 463d eaaf ebbc
00000040: 0f9f 7a3b 3cb2 67bd dd0c 3b3d b81e 7f3c
00000050: c143 263e 5cfe 163d d187 86bd 14d5 013e
00000060: dcf9 a2bd f926 f73d f6f8 923d f1ba e7bc
00000070: de76 433d 9a6f 39bb af75 a6bd 279d 93bd
00000080: dd83 8d3d f1ba 1fbc f11d 443d 40cb 8abc
00000090: 666b 97bd 51cc d03d 1233 9f3c f55c 2d3d
000000a0: bb29 003e f7c5 e4bd 59a7 d7bd b54f e13d
000000b0: 994c 4dbd f9cc a13c 6ce8 c23d c54e 043d
000000c0: dc51 c93d 0d7a c33c ebae 5fbd 2e47 a93c
000000d0: 7bb4 18bd e329 3b3b 80a3 643d c556 86bd
000000e0: 250d a83a 376b 31bd 51b4 5e3e 8620 323e
000000f0: 60e7 e2bd b648 2c3e 34a7 5d3b e88e 00bb
00000100: a52c 2cbd 8e8b c2bd 1977 b43d e3c8 f53d
00000110: 810a 0cbd 6fd3 2d3e cd0a f53c 1ef8 263e
00000120: 091d 373e 6db6 8fbd 3f49 603d 6d0f d4bb
00000130: c7c0 1c3e cd53 61bd 9bb7 213c 02b6 f43d
00000140: 4db1 72bd e054 41bc b0cc 4d3e d19f debc
00000150: 3bd8 723d 7ef5 10be 2275 493d c683 acbc
00000160: 5c40 d33c f25b d6bc 7276 e53b b7ba 8cbd
00000170: 67f0 763d 8d92 9b3d 3b94 3fbd 6cef 7f3d
00000180: a82b c43d 3a9e 563d 734d 393e 28a0 a03d
00000190: 6896 003d 6182 813b ab56 e83d b9df b23d
000001a0: 1842 0f3e 1b6a 893c 74b8 033e 5671 95bc
000001b0: cb3a b2bd 3c11 abbc dd78 03bd 2e68 30bd
000001c0: cc29 f6bc 0906 febd 32a6 923c bcfb 133e
000001d0: f58b 06bd bc0d 4ebc e119 a6bb e65a 073e
000001e0: 9383 703d 31d3 d63d 41eb 25bd 2006 0c3e
000001f0: 56be d63b 96b1 2b3e e0b2 283e 245e 023d

sequential_1/dense_5/BiasAdd/ReadVariableOp f4 [10]
-0.15109558 -0.10543884 0.011029158 -0.06910664 0.053632963 0.1335294 -0.05412143 -0.09398784
0.18485165 -0.02665102
00000000: cdb8 1abe 52f0 d7bd a4b3 343c c887 8dbd
00000010: 3dae 5b3d eebb 083e 6fae 5dbd b27c c0bd
00000020: c049 3d3e 3d53 dabc

sequential_1/dense_4/MatMul f4 [128, 784]
-0.07085673 0.009176046 0.01688961 -0.06709259 0.07566873 0.019549258 0.07555614 0.073842324
0.02782607 0.014813505 0.032839373 0.016844511 -0.012255318 0.020593591 0.048197366 -0.003898792
0.007915512 -0.017338738 -0.038357615 -0.013148129 -0.048520066 -0.06346159 -0.07797862 -0.026717387
-0.017192833 0.04300993 -0.030652057 0.021757267 -0.03885012 -0.027410995 0.049694292 -0.037660275
-0.068891995 -0.06421758 -0.031946212 -0.045933336 -0.03131965 -0.032691937 -0.017060265 0.05747979
-0.0044183913 0.066732675 -0.043238677 -0.07794068 -0.034036182 -0.00015787798 -8.15894e-05 -0.08083804
0.032849662 0.057954542 0.00966575 0.026630484 -0.075562164 0.04826235 -0.06501001 0.060091965
0.073346786 -0.012500934 -0.024213988 -0.051573582 0.0015333146 -0.03885101 0.009711094 -0.078632295
-0.04670944 0.0047460655 0.018630577 0.13602361 0.11522305 -0.045260414 0.023330716 -0.00441051
0.041099362 0.00848298 0.036869187 0.02039249 -0.07261816 -0.040732794 -0.048463866 -0.061270967
0.04391902 -0.002529934 -0.07800664 0.06960336 -0.0054124594 -0.05556905 -0.07778773 0.06431743
-0.021358825 0.02505973 0.039232165 -0.07253097 -0.055696655 0.02712466 0.11016034 0.047083117
0.0420848 0.048983745 0.033867627 -0.010861901 0.04317829 0.051444594 -0.046213757 0.030154837
-0.0047455756 0.078690805 0.09399357 0.074559845 0.066174515 -0.021368802 0.0048899427 -0.037621967
-0.007160254 0.027817331 -0.04482732 0.06945854 0.04847785 0.0075211646 -0.01249842 0.02057563
0.11002694 0.09964276 0.20628387 -0.015687866 0.04568829 0.07035157 -0.037028693 -0.032839302
-0.122055486 -0.09837043 -0.049719878 -0.061008565 -0.0068296725 0.065841846 0.03771913 0.07182234
-0.015805077 -0.032533713 -0.0516328 -0.03174964 0.024174675 -0.028715365 0.012860164 -0.036808424
0.028494619 -0.006345394 0.03238639 -0.020458786 0.054646045 0.09591616 0.11041711 0.07625847
0.07450403 0.046121668 0.09145765 -0.015400729 -0.001431215 0.025141878 0.06596737 0.0429681
0.01990943 -0.05540258 -0.049564064 -0.08927204 0.056590747 -0.047897212 0.0028770715 -0.017578691
-0.0053694174 0.0046881065 -0.026808202 -0.06667482 -0.12573256 -0.081461735 0.10065742 -0.026401857
-0.09078338 -0.016465837 0.008492404 0.05581419 -0.051930267 -0.046305776 0.089593776 -0.044848144
-0.046780333 -0.06474337 -0.047262654 -0.026788257 -0.09701129 -0.08289663 -0.0245809 0.023298286
-0.09167966 -0.0925623 0.06876253 -0.012062147 0.0126718655 -0.07529135 0.062354304 0.06235598
-0.016416011 0.054039076 8.9760084e-05 0.00040281634 -0.100463584 -0.036419414 -0.018332012 0.08271251
-0.041419506 -0.10698386 -0.03826118 -0.076863505 -0.08574533 -0.08678252 -0.06919407 -0.0670327
0.013731521 -0.0281234 -0.113096416 0.018911645 0.015366104 0.03735553 -0.029488485 0.04846794
0.015018359 0.051178344 0.035337716 0.08558039 0.06527518 -0.048079435 -0.06333534 -0.058163665
0.013179987 -0.07057724 0.014510429 -0.028194742 -0.027497483 -0.07361467 -0.066293 0.04585196
0.046833254 0.014353327 0.019412821 0.03372051 -0.019916696 -0.01829989 -0.07875538 -0.069760725
-0.046761803 0.026719823 -0.01073461 0.0042190775 -0.00500945 0.06608128 -0.07194143 0.026981767
00000000: 551d 91bd 2057 163c 145c 8a3c d767 89bd
00000010: 35f8 9a3d c425 a03c 2dbd 9a3d a53a 973d
00000020: 80f3 e33c 58b4 723c 9482 063d 80fd 893c
00000030: 88ca 48bc e4b3 a83c 9a6a 453d e082 7fbb
00000040: 10b0 013c f809 8ebc e01c 1dbd 406b 57bc
00000050: fabc 46bd 26f8 81bd 41b3 9fbd 6cde dabc
00000060: fcd7 8cbc 2e2b 303d 061a fbbc 4c3c b23c
00000070: 4e21 1fbd 068d e0bc 3e8c 4b3d a941 1abd
00000080: 3f17 8dbd 8284 83bd 08da 02bd 9824 3cbd
00000090: 0949 00bd fbe7 05bd f8c1 8bbc ee6f 6b3d
000000a0: 27c8 90bb 24ab 883d 0a1b 31bd 5d9f 9fbd
000000b0: 8669 0bbd 0c8c 25b9 fa1a abb8 6a8e a5bd
000000c0: 5e8d 063d be61 6d3d 185d 1e3c 2c28 da3c
000000d0: 56c0 9abd beae 453d f823 85bd fe22 763d
000000e0: d736 963d b8d0 4cbc 6a5c c6bc d23e 53bd
000000f0: 80f9 c83a 3d22 1fbd 481b 1f3c f809 a1bd
00000100: 6652 3fbd e284 9b3b 279f 983c c649 0b3e
00000110: 10fa eb3d fc62 39bd 0f20 bf3c 0a86 90bb
00000120: ce57 283d 32fc 0a3c 2504 173d 270e a73c
00000130: d4b8 94bd 6ed7 26bd 0c82 46bd 44f7 7abd
00000140: 6ee4 333d 40cd 25bb f2c1 9fbd 358c 8e3d
00000150: 005b b1bb 5f9c 63bd 2c4f 9fbd dbb8 833d
00000160: b4f8 aebc 104a cd3c e8b1 203d 1e8b 94bd
00000170: 2d22 64bd 8934 de3c bf9b e13d 3ada 403d
00000180: 1c61 2c3d 2ea3 483d c8b8 0a3d 1df6 31bc
00000190: b8db 303d 91b7 523d a34a 3dbd 4707 f73c
000001a0: c680 9bbb a528 a13d b37f c03d d5b2 983d
000001b0: 8186 873d a00d afbc d03b a03b 7e19 1abd
000001c0: 90a0 eabb 2ce1 e33c da9c 37bd 4740 8e3d
000001d0: b690 463d 1a74 f63b 2cc6 4cbc 398e a83c
000001e0: ce55 e13d 8111 cc3d 143c 533e d783 80bc
000001f0: a523 3b3d 7c14 903d 66ab 17bd 8182 06bd
00000200: 3af8 f9bd 7076 c9bd 12a7 4bbd 1ee4 79bd
00000210: 72cb dfbb 17d8 863d 607f 1a3d 9717 933d
00000220: a679 81bc 1242 05bd ea7c 53bd e90b 02bd
00000230: f809 c63c 7c3c ebbc 70b3 523c 6ec4 16bd
00000240: 8c6d e93c 06ed cfbb 97a7 043d 2f99 a7bc
00000250: 88d4 5f3d b16f c43d 5e22 e23d 672d 9c3d
00000260: 9295 983d 13ea 3c3d 264e bb3d 5753 7cbc
00000270: 9b97 bbba 57f6 cd3c e719 873d 52ff 2f3d
00000280: 1a19 a33c d1ed 62bd b003 4bbd 42d4 b6bd
00000290: b3cb 673d de2f 44bd 408d 3c3b 3001 90bc
000002a0: f0f1 afbb b09e 993b e09c dbbc cf8c 88bd
000002b0: 09c0 00be 69d5 a6bd 7a25 ce3d b548 d8bc
000002c0: a3ec b9bd 5de3 86bc b923 0b3c 6c9d 643d
000002d0: d5b4 54bd 20ab 3dbd f17c b73d b0b2 37bd
000002e0: bc9c 3fbd 2c98 84bd 7c96 41bd 0c73 dbbc
000002f0: dbad c6bd b5c5 a9bd e25d c9bc 0cdc be3c
00000300: 8cc2 bbbd 4e91 bdbd 5fd3 8c3d 50a0 45bc
00000310: a89d 4f3c 5a32 9abd 3a67 7f3d fc68 7f3d
00000320: df7a 86bc 1458 5d3d 943d bc38 1831 d339
00000330: dabf cdbd 862c 15bd 042d 96bc 2d65 a93d
00000340: 80a7 29bd 5b1a dbbd c1b7 1cbd 9d6a 9dbd
00000350: 3f9b afbd 09bb b1bd 9fb5 8dbd 7148 89bd
00000360: 2cfa 603c 0b63 e6bc 189f e7bd 98ec 9a3c
00000370: 1dc2 7b3c 1d02 193d d691 f1bc 5286 463d
00000380: 900f 763c 62a0 513d 48be 103d c644 af3d
00000390: feae 853d f1ee 44bd f5b5 81bd 063d 6ebd
000003a0: dff0 573c cd8a 90bd 27bd 6d3c a9f8 e6bc
000003b0: 6742 e1bc 4ac3 96bd a0c4 87bd 44cf 3b3d
000003c0: 3ad4 3f3d 382a 6b3c a307 9f3c 841e 0a3d
000003d0: 5728 a3bc a7e9 95bc 804a a1bd b6de 8ebd
000003e0: 4e89 3fbd 88e3 da3c 38e0 2fbc 3040 8a3b
000003f0: 5026 a4bb 9f55 873d 0756 93bd de08 dd3c

sequential_1/dense_5/MatMul f4 [10, 128]
0.072730094 -0.2841747 -0.23238249 0.17207728 -0.35232115 0.025686642 -0.28256103 0.2956898
-0.2639313 0.19352837 -0.19586518 0.042488374 -0.33806223 0.072722055 0.19675091 -0.44797713
-0.4668838 -0.043636054 0.15520412 0.16042107 0.21667364 -0.046220686 0.14964315 -0.46582702
0.15672797 0.21965076 0.09626929 -0.20050474 0.21093364 -0.030708842 -0.33332425 0.117666006
0.1622045 -0.084854305 -0.03196518 -0.109239295 -0.3030701 0.2374543 -0.47833934 -0.51524764
-0.33203772 0.24022384 0.3159882 0.1276567 0.24799562 -0.33908865 0.2469292 -0.5315295
-0.48491627 0.25717264 0.16931607 0.2975028 0.21145155 0.27718598 -0.6808005 0.14724128
-0.20481528 0.0621213 -0.031582404 -0.07705339 0.117603645 -0.054216783 0.15206793 0.1997478
0.03623326 0.31155676 0.013244402 -0.2853283 0.17954837 -0.036851395 -0.026943762 -0.60509026
-0.048571765 -0.6261897 -0.15431671 0.007673734 -0.6297997 0.23013662 0.1670501 0.06341772
0.22191711 0.040777218 0.09908592 0.2597062 -0.28459057 -0.050958868 0.25139433 0.07549772
-0.42184925 -0.46189967 0.12845466 -0.06912305 0.13506518 -0.25089788 0.27908975 0.19707495
-0.29483533 -0.5174321 -0.13549432 -0.1866995 0.098717876 -0.0013695139 -0.4870146 -0.21770534
-0.3036904 -0.5708266 -0.40783793 0.1600127 0.21540748 -0.24207182 -0.018558487 0.17507203
-0.36105147 -0.27965033 -0.12920125 -0.018492276 -0.18777466 -0.23745032 0.055161443 -0.01175079
-0.15389769 -0.25016916 0.2561796 -0.49225095 -0.07250141 -0.088599704 -0.023129487 0.024198692
0.094862305 0.17686796 0.16243963 -0.30394182 0.0672685 0.2500782 -0.082201816 0.31402066
-0.019657763 -0.026289165 0.19719726 0.2506145 0.19924542 0.092098266 -0.06200456 0.030703958
-0.06431016 0.07651526 -0.17487873 0.15253009 0.19634455 0.17698593 0.16231471 -0.24781014
0.27660406 0.35194668 -0.59201086 -0.29071137 -0.21898025 0.2650953 0.30547217 0.24973111
-0.3941177 -0.25366598 -0.2686833 -0.10124392 0.30707994 -0.17235091 0.16368008 0.12881602
0.16227718 0.2501295 -0.03986881 -0.2060526 -0.19166332 0.18626249 0.03210195 0.31835946
-0.2559521 -0.21460545 -0.9589768 -0.29250434 -0.558215 0.013337699 -0.10802111 -0.3720911
-0.028813185 -0.124019116 -0.26055712 -0.30648756 0.03500548 0.39915186 -0.18029222 0.0897693
-0.17027467 -0.17468683 -0.28458345 0.13384733 -0.25071934 0.06607652 0.04592742 -0.017230459
0.32442877 -0.088198975 0.30738008 0.07189636 -0.44900185 0.20602825 -0.2275466 -0.38474682
-0.3811817 0.018993545 -0.44388562 -0.24038367 0.23478155 0.29136327 -0.14320022 -0.066206805
-0.22821292 0.4485078 -0.22285399 -0.01550615 -0.5125207 0.034155484 -0.31846166 -0.012327348
0.08478991 -0.4421793 -0.12178192 0.15750635 -0.2108579 0.101797 -0.0190206 0.6875245
0.07768553 0.022938177 -0.032297913 -0.3381498 0.018948348 0.31594598 0.19041967 0.07821664
0.17331028 0.15522654 0.42504644 -0.08939759 0.2405891 0.14913186 -0.13573977 -0.43998674
-0.039533827 -0.2568965 -0.03494409 -0.14453119 0.16955808 -0.40636045 0.5907971 0.46280107
00000000: 84f3 943d 597f 91be adf5 6dbe 0735 303e
00000010: 7063 b4be cb6c d23c d7ab 90be a764 973e
00000020: 0122 87be 4d2c 463e e290 48be 4a08 2e3d
00000030: 7e16 adbe 4def 943d 1279 493e 425d e5be
00000040: 650b efbe b8bb 32bd d4ed 1e3e 6c45 243e
00000050: b2df 5d3e e751 3dbd 0e3c 193e e180 eebe
00000060: 4c7d 203e 21ec 603e d528 c53d 1d51 4dbe
00000070: fdfe 573e 1c91 fbbc 7aa9 aabe e0fa f03d
00000080: f018 263e 18c8 adbd eced 02bd dab8 dfbd
00000090: 012c 9bbe 3827 733e e5e8 f4be 45e7 03bf
000000a0: d900 aabe 3dfd 753e 35c9 a13e 70b8 023e
000000b0: 90f2 7d3e 079d adbe 02db 7c3e 5112 08bf
000000c0: f246 f8be 22ac 833e 3161 2d3e 4952 983e
000000d0: c186 583e 52eb 8d3e f148 2ebf 6bc6 163e
000000e0: 19bb 51be e772 7e3d 8d5c 01bd 2bce 9dbd
000000f0: 2eda f03d 6b12 5ebd b2b7 1b3e b08a 4c3e
00000100: 5469 143d 5e84 9f3e 0cff 583c 8d16 92be
00000110: 87db 373e 7df1 16bd 2ab9 dcbc 32e7 1abf
00000120: 30f3 46bd f84d 20bf 3305 1ebe f273 fb3b
00000130: 8e3a 21bf efa8 6b3e 2e0f 2b3e 26e1 813d
00000140: 3d3e 633e 0306 273d 8fed ca3d 36f8 843e
00000150: dbb5 91be 3fba 50bd c2b6 803e 8c9e 9a3d
00000160: a0fc d7be 1d7e ecbe 9e89 033e 6390 8dbd
00000170: 874e 0a3e b075 80be dae4 8e3e 04ce 493e
00000180: a8f4 96be 6e76 04bf 06bf 0abe 272e 3fbe
00000190: 992c ca3d 4381 b3ba fa59 f9be 26ee 5ebe
000001a0: 4f7d 9bbe b121 12bf 22d0 d0be 5fda 233e
000001b0: c793 5c3e ade1 77be f807 98bc 1546 333e
000001c0: bddb b8be 542e 8fbe 554d 04be 1d7d 97bc
000001d0: 0048 40be 2d26 73be f7f0 613d 6386 40bc
000001e0: 5b97 1dbe 2c16 80be f929 833e 5108 fcbe
000001f0: 9f7b 94bd c373 b5bd 0d7a bdbc 563c c63c
00000200: 2b47 c23d e01c 353e 9356 263e 439e 9bbe
00000210: 11c4 893d 400a 803e 6d59 a8bd 51c7 a03e
00000220: 5109 a1bc 605c d7bc 14ee 493e 8b50 803e
00000230: fe06 4c3e 049e bc3d 7ef8 7dbd de86 fb3c
00000240: 0cb5 83bd 08b4 9c3d 6913 33be d930 1c3e
00000250: 8c0e 493e cd3b 353e d435 263e f1c1 7dbe
00000260: 0c9f 8d3e 5b32 b43e 068e 17bf 1fd8 94be
00000270: 5c3c 60be 92ba 873e d966 9c3e 83b9 7f3e
00000280: ccc9 c9be 82e0 81be dc90 89be f958 cfbd
00000290: 9539 9d3e c27c 30be c09b 273e 59e8 033e
000002a0: fd2b 263e f910 803e 7a4d 23bd 74ff 52be
000002b0: 6443 44be 98bb 3e3e 567d 033d 0300 a33e
000002c0: 270c 83be 88c1 5bbe 817f 75bf 21c3 95be
000002d0: 2ee7 0ebf 5d86 5a3c 2c3a ddbd ba82 bebe
000002e0: a109 ecbc bcfd fdbd be67 85be f0eb 9cbe
000002f0: e861 0f3d a25d cc3e 869e 38be f7d8 b73d
00000300: 7c5c 2ebe 1be1 32be ecb4 91be 460f 093e
00000310: 495e 80be 2053 873d 641e 3c3d e426 8dbc
00000320: 871b a63e aaa1 b4bd ec60 9d3e 663e 933d
00000330: 92e3 e5be 12f9 523e fa01 69be 89fd c4be
00000340: 3f2a c3be 5a98 9b3c fa44 e3be 2327 76be
00000350: 936a 703e 912d 953e 14a3 12be 6f97 87bd
00000360: a6b0 69be d0a2 e53e d633 64be 820d 7ebc
00000370: 8e34 03bf 9fe6 0b3d 680d a3be a5f8 49bc
00000380: 55a6 ad3d 5365 e2be cd68 f9bd 5849 213e
00000390: 22eb 57be f27a d03d 17d1 9bbc 9b01 303f
000003a0: 9719 9f3d d8e8 bb3c d14a 04bd f821 adbe
000003b0: 9139 9b3c acc3 a13e 60fd 423e 0c30 a03d
000003c0: 4078 313e b5f3 1e3e b09f d93e 1516 b7bd
000003d0: fd5c 763e 06b6 183e 5eff 0abe f145 e1be
000003e0: 39ee 21bd f087 83be 8921 0fbd fcff 13be
000003f0: a2a0 2d3e 7a0e d0be 7b3e 173f 43f4 ec3e
